complete_verifier/exp_configs/vnncomp22/before_submission/nn4sys_indexing/nets_pytorch/lindex_normal.pth (torch, 136695 bytes, 7 tensors)

fc1.weight f4 [128, 1]
000000 50 8b 8c bd a1 bd 76 bf a0 a7 c1 bd 67 74 6b 3e
       -0.06862509 -0.963831 -0.094558 0.22993623
000010 68 18 88 bd 6e 00 85 bf 0c 94 8c 3e 7a 10 04 bf
       -0.0664528 -1.0390756 0.274567 -0.5158764
000020 30 bd ec 3e 3f 8c 11 3f d4 fd 19 bf 0a 6f c4 3e
       0.4623809 0.56854624 -0.60152936 0.38365966
000030 75 c4 44 3f 0d 2a 2a 3f fa ac 1b 3f 1e 92 a1 bf
       0.7686227 0.66470414 0.60810816 -1.2622716
000040 6f b4 aa 3f 67 ec a1 3f 14 b3 3f bf 60 bb de bd
       1.3336314 1.2650269 -0.74882627 -0.10875583
000050 a0 29 0e 3f 16 a5 63 bf 01 00 93 bf 3b 0a 51 3f
       0.55532265 -0.88923776 -1.1484376 0.81656235
000060 fe 7b 25 3f 03 13 f3 be 9c 7e cc be 18 29 61 3e
       0.6464232 -0.47475442 -0.39940345 0.21988332
000070 5b fa ab 3e 20 e3 5d 3e e8 72 07 be cf 7d 44 3f
       0.33589444 0.21668673 -0.13227427 0.7675447
000080 88 a5 b6 be 6e e5 55 bf 1b ca 22 bf 40 25 20 bf
       -0.35673165 -0.83553207 -0.6358964 -0.6255684
000090 48 c2 91 3e 54 94 24 bf 9c 88 36 bf cb 0b 12 3f
       0.28468537 -0.6428883 -0.713022 0.57049245
0000a0 3c 1c 85 3f f4 f6 2b bf ca a0 65 bf 73 d9 85 bf
       1.0399241 -0.67173696 -0.8969847 -1.0456985
0000b0 85 58 26 3f 30 95 be bd a3 20 8d 3f 20 da 23 bf
       0.6497882 -0.09305799 1.1025585 -0.6400471
0000c0 ad ae 09 bf 2f 3e c1 3f 3d 3b a2 3f 5b a5 ce 3f
       -0.5378216 1.5097102 1.2674328 1.6144212
0000d0 64 0f 8a 3e f7 15 a7 3f d6 f4 a2 3f 62 ed 43 bf
       0.26964867 1.3053578 1.2730968 -0.7653409
0000e0 ce 47 3b bf 0f bb 67 3f 98 7f 79 3f 23 28 96 3e
       -0.7315644 0.90519804 0.9746032 0.29327497
0000f0 59 b5 75 3f 40 f4 57 bf ed b5 8b 3f 82 0c 02 3f
       0.9597984 -0.8435707 1.0914894 0.50800335
000100 8a 5e 7e 3f 60 69 27 3e d8 e2 6f be 2c 73 dd 3e
       0.99363005 0.16348791 -0.23426378 0.43251932
000110 f4 a0 b3 3f 35 d0 de 3e c2 f9 67 bf 96 3a 01 bf
       1.4033494 0.43518224 -0.90615475 -0.5048002
000120 86 dc 70 be 96 25 3d bf 99 3c 95 bf 3a ef 3b 3f
       -0.23521623 -0.73885477 -1.1659118 0.73411906
000130 88 d7 4c bf eb 06 c2 3f f5 52 30 3f ab 1a 50 3f
       -0.80016375 1.5158361 0.6887658 0.8129069
000140 a9 80 7f be 26 4b 50 bf 8e 16 38 3f fd 40 86 bf
       -0.24951424 -0.8136467 0.71909416 -1.0488583
000150 5c 7d 4b 3c 73 66 74 3f 30 fe 19 be 66 90 70 3f
       0.012420025 0.95468825 -0.15038371 0.93970335
000160 d9 ad d4 be e3 8b 7a 3f f0 48 cf 3e f1 2c 3a 3f
       -0.41538885 0.978697 0.40485334 0.72724825
000170 e4 41 ce 3e b0 14 ef be ac 47 b1 3e 1b 17 f6 3e
       0.40284646 -0.4669547 0.34624994 0.48064503
000180 ba c5 9a bf d0 72 89 bf 80 21 c2 bf f4 cf 89 3f
       -1.2091591 -1.0738163 -1.5166473 1.0766587
000190 28 26 17 3e 09 3e e6 3e 59 2e 56 be 54 a3 ca be
       0.14760649 0.44969204 -0.20916118 -0.39577734
0001a0 88 b5 86 3f 2a fe 86 3f dc 11 36 bf e4 b9 d8 3e
       1.0524149 1.0546315 -0.71121 0.42329323
0001b0 f1 62 50 3f 8b da 97 be 56 3a 42 3e 83 b5 22 3f
       0.8140097 -0.29658923 0.18967566 0.63558215
0001c0 74 6b 54 bf 1c ab 24 bf 5e c5 71 3f b7 f0 72 bf
       -0.8297646 -0.6432359 0.94441783 -0.9489855
0001d0 86 36 c3 3e 34 7c 77 bf 67 89 4f bf b0 4c fb bd
       0.38127536 -0.96673894 -0.81069034 -0.12270486
0001e0 a0 a3 91 3d 00 9c f6 be c0 11 cd 3e a0 24 2f 3f
       0.07111287 -0.48165894 0.40052605 0.6841526
0001f0 d8 fe 55 bf a4 42 e8 bd cb 7a 92 3f 3e e4 6a 3f
       -0.83591986 -0.11340836 1.1443723 0.9175452

fc1.bias f4 [128]
000000 4c f0 eb be 07 5b 14 3f 8e ef 37 bf 80 26 5d 3f
       -0.4608177 0.57951397 -0.71849906 0.8638687
000010 13 54 ac 3e 7b 5b b4 3e 22 1a 3e bf 7c 06 b0 be
       0.33657894 0.35226044 -0.74258626 -0.34379947
000020 78 3c 64 bf 92 a4 f2 3e a8 81 57 bf 62 5b c6 be
       -0.8915477 0.47391182 -0.84182215 -0.38741595
000030 97 6b dc 3b 2e 95 c6 3e ee b9 6b 3e 04 85 8d 3e
       0.006726693 0.3878569 0.23020145 0.27640545
000040 e6 7b 46 3f a3 38 20 3c e0 3f eb bd f0 c8 c3 be
       0.77532804 0.009779128 -0.114867926 -0.3823924
000050 8c 34 42 bd 10 e6 50 bf cd 30 1f 3f c7 4c 66 3f
       -0.047413394 -0.8160105 0.6218384 0.899609
000060 64 7b 15 3f cc 9b f6 3e e4 5a 90 be 1a ab 52 bf
       0.58391404 0.4816574 -0.28194344 -0.8229233
000070 c7 62 6f 3f 88 e1 99 be 3c c1 c6 be 67 86 3e bf
       0.935101 -0.3005488 -0.388193 -0.7442383
000080 a4 9b 28 bf 0e c5 4d 3e 57 71 10 3f 5a ea 60 bf
       -0.6586249 0.20094702 0.5642294 -0.8785759
000090 70 a9 61 bf 30 eb 09 be 70 c5 56 bf cd de 3f 3f
       -0.88149166 -0.13468623 -0.83895016 0.7494934
0000a0 c1 09 9f 3a 90 b9 39 bf 56 45 7e 3e c9 8c 3c 3f
       0.0012133644 -0.7254877 0.24831137 0.7365232
0000b0 fe 54 0c 3e 62 ab 38 bf 9d 9e 13 3e 3e 4b 40 bf
       0.13704297 -0.7213651 0.14415975 -0.7511481
0000c0 8a d7 11 3f 02 b0 3c 3c 44 35 53 3e c7 a2 85 3c
       0.5696951 0.011516573 0.20625788 0.01631297
0000d0 2a 62 4d bf f8 88 70 3e 92 1b 55 3f 68 83 4c be
       -0.8022791 0.2348975 0.83245194 -0.19972003
0000e0 38 12 ba be 76 d8 49 bf 09 f4 65 3c 54 ea 75 3f
       -0.36342025 -0.7884592 0.014035233 0.9606068
0000f0 b8 26 2e bd 00 6d 97 be 57 8e 2b 3f 04 9d 50 bf
       -0.042517394 -0.29575348 0.6701407 -0.81489587
000100 b5 19 70 3c 84 dc a8 be 80 16 ef bc b6 16 24 bf
       0.0146545665 -0.3298074 -0.029185534 -0.64097154
000110 ec 7d dc 36 32 7f f8 3d f7 b0 3c 3e 6c c9 18 bf
       6.57117e-06 0.121336356 0.18426882 -0.59682345
000120 15 4b 5c 3e 42 b7 5f bf c0 3a 95 3d e3 9e cc 3d
       0.21513017 -0.87389004 0.07286596 0.09991243
000130 2c 98 88 be 5f 01 35 3c a6 94 14 37 52 9e 05 3f
       -0.26678598 0.01104769 8.856097e-06 0.521947
000140 98 36 5c 3f d8 b2 67 bf 2f 69 44 3f 0b 11 ae 3e
       0.86020803 -0.9050727 0.76723 0.33997378
000150 ef ca 75 3f 4c f2 5c 3f 1c 08 b1 be 0c 89 4f be
       0.9601278 0.86307216 -0.345765 -0.20267123
000160 40 41 26 3f 08 da 0e 3f 37 50 52 3f f1 97 8e be
       0.64943314 0.5580144 0.8215365 -0.27850297
000170 a5 54 6a 3e 7c 37 b3 be a8 02 3e bf 96 5f 13 3f
       0.22883852 -0.3500327 -0.74222803 0.5756773
000180 68 e9 49 3e 8b 95 4c 3f bb 7f ff 3e 3e 8e 19 bf
       0.19717944 0.79915684 0.49902138 -0.5998267
000190 e0 c6 ed be da 4c 98 3e 8f 3c 3b 3f e2 b7 55 bf
       -0.46440792 0.29746133 0.7313928 -0.8348371
0001a0 4d 61 73 3f 70 14 19 3f 10 45 9f bd da 4a 75 bf
       0.95070344 0.5979681 -0.077768445 -0.9581734
0001b0 ce 83 7d be c8 ff 2a 3f c5 f7 aa 3e 4c 84 12 3e
       -0.24757311 0.6679654 0.33392158 0.1430828
0001c0 e2 15 58 bf e4 98 71 bf 74 aa 54 bf d3 b8 0d bc
       -0.8440839 -0.9437392 -0.8307259 -0.008650023
0001d0 78 be c7 bb d4 01 0f bf 7d 72 74 3f 5c df 7a bf
       -0.0060957037 -0.55862164 0.95487195 -0.9799707
0001e0 da 86 71 bf c8 a5 60 bf bc dd fc be 3d 1d 7f 3d
       -0.9434639 -0.8775296 -0.4938792 0.062283743
0001f0 8c 54 94 be ab ec 80 3d e1 cf 3f 3f 47 07 2c bf
       -0.28970754 0.06295141 0.74926573 -0.67198604

fc2.weight f4 [128, 128]
000000 5a a8 25 bd 74 0d a0 3d f9 16 9d bc ee 94 df bc
       -0.040443756 0.07815066 -0.019175993 -0.027292695
000010 e9 8f 66 3d f6 a4 84 3d e1 bf ea bc 3e c4 86 bd
       0.056289587 0.06476776 -0.028655948 -0.06580399
000020 34 a0 b2 3d 54 27 ae 3d 63 1d 09 3d d0 53 97 3c
       0.087219626 0.08503595 0.03347529 0.018472582
000030 f7 b2 14 3e c9 41 26 bd 27 62 94 bd 58 97 76 3d
       0.14521395 -0.04059008 -0.072452836 0.060202926
000040 c9 07 33 3d fe 10 29 3e 4c b8 a2 3d 80 e9 9f bd
       0.043708596 0.16510388 0.07945308 -0.078082085
000050 36 82 49 be 28 de 7a bd 01 85 41 3d 67 fc b6 3d
       -0.19678578 -0.06124702 0.047245983 0.08934861
000060 af 4e bb 3d 7d c6 6c 3d 85 97 c6 3c 2f d6 d3 bc
       0.09145867 0.05780648 0.024242172 -0.025858967
000070 53 5b 0d 3d 29 bf 53 bd f8 0f 8c ba 53 b6 69 3d
       0.03451092 -0.051695976 -0.0010685911 0.057058644
000080 3e cb 8f bd ad ff d0 ba 55 76 85 3d b1 89 08 3d
       -0.07021187 -0.0015945338 0.06516711 0.033334438
000090 8e 92 05 3d 99 8b e1 3c 21 5f 35 bd 9b b0 66 3d
       0.03261047 0.027532386 -0.044280175 0.056320768
0000a0 1b 07 11 3e e2 9e 92 bc 41 0b b9 bd 49 a9 60 bc
       0.14162867 -0.017898027 -0.0903535 -0.013712236
0000b0 0b 10 8f 3d 2a 72 d0 3b d7 c8 a9 3d 83 c1 3e bd
       0.06985482 0.0063612657 0.0829026 -0.046571266
0000c0 0b d7 61 bd 28 8a 47 3d b5 6a 0b bd b5 1a c7 3d
       -0.05513672 0.04871574 -0.03403731 0.09721891
0000d0 3b 8f 51 bd 1b a8 1b bd 79 0a 7c bc 17 77 ab 3c
       -0.051161986 -0.038002115 -0.015383356 0.02093081
0000e0 b3 93 50 bd aa 4f 62 3c f6 b2 61 3d 7d a1 36 3d
       -0.050922107 0.013812939 0.05510231 0.0445876
0000f0 43 ed 47 be a2 92 a4 3d 16 24 b1 3d fe 07 6b bd
       -0.19524102 0.080357805 0.08649461 -0.05738067
000100 cb df 3a bc 1c 2f a2 3d ea a2 0a bd f2 a3 8e bc
       -0.011405895 0.07919142 -0.033846773 -0.01741216
000110 1f 01 97 3d 13 de 89 3d e1 9b d0 bd 7b de 2f bd
       0.07373261 0.067318104 -0.101859815 -0.042936783
000120 4e 5e 98 bd bf 96 b5 3c 63 56 6a be d1 51 c8 3d
       -0.07439862 0.022166608 -0.22884516 0.0978123
000130 44 c8 a7 3d 3f 65 34 3d 34 83 1a 3e 2a 40 64 bd
       0.081924945 0.04404187 0.15089113 -0.055725254
000140 e2 5b 7e bd 6d 2d a5 bb 7d 02 14 bd cb b4 aa 3c
       -0.062099345 -0.0050408156 -0.036135186 0.020838162
000150 73 4b 60 3d 3a 87 07 bc e8 a9 2c bc 7e 30 e6 3c
       0.054759454 -0.008271987 -0.010538556 0.028099295
000160 6f 64 93 3d 26 48 ae bb 17 6c 1e bc 31 c1 77 bd
       0.071968906 -0.0053186594 -0.009669325 -0.060486976
000170 b2 05 14 3d 1d 5b 51 3c fc f1 8c bd ce 66 c3 bc
       0.036138244 0.012778071 -0.06882092 -0.023852732
000180 6a ce 92 bd b6 96 2a bd fc cf 5b bc e5 3d a1 bd
       -0.071682766 -0.041647635 -0.013416287 -0.078731336
000190 fc 53 8e bd 6f f1 9d bd a0 e8 a0 bd a9 fc 6d 3d
       -0.069496125 -0.077120654 -0.0785687 0.058102284
0001a0 d5 77 c3 3d e3 e1 73 3d f2 9b 9e 3d 04 46 95 3d
       0.095443405 0.059541594 0.07744588 0.07288745
0001b0 0f f9 0d be 3c 3c df 3b bf e6 7c bc c3 ac 32 bd
       -0.1386454 0.0068126004 -0.0154358735 -0.04362179
0001c0 fb 7f 8d bd 85 b9 17 3d c1 4a 40 3d 32 2e 49 3d
       -0.06909176 0.03704216 0.04694629 0.04911632
0001d0 47 3a 4c be 5c 53 46 3d 29 3c a1 3d 22 0d c0 b9
       -0.19944106 0.04841934 0.07872803 -0.00036630878
0001e0 4e d4 2b 3d fa 60 bf bc cb 1a 3b bd 9d df bd 3d
       0.041950516 -0.023361672 -0.04567985 0.092711665
0001f0 ab 1a 25 3d 28 b4 c3 bc 4c af 76 3c 26 e4 cb bd
       0.040308636 -0.023889616 0.0150564425 -0.09955625
000200 8a d5 32 3c c9 55 06 3d 2e db e8 3c 14 7d 85 bd
       0.0109151695 0.032796655 0.028424826 -0.065179974
000210 d5 d2 96 bc 0f 04 0d 3d 17 92 f3 3c 3a 29 9e 3d
       -0.01841108 0.0344277 0.029732747 0.07722707
000220 5c 21 9e 3d c3 41 e1 3a f0 a7 6e bd 66 7f 3e 3d
       0.077212065 0.0017185736 -0.058265626 0.046508215
000230 68 bc 37 3d 50 54 34 bd a1 6d 0f 3d 0d 36 08 3d
       0.044857413 -0.04402572 0.03501666 0.03325467
000240 76 a8 9a bd 9e 8b f9 bc f1 a6 1a bd 07 b8 28 3c
       -0.075516626 -0.030462082 -0.037756864 0.010297782
000250 6a a1 5d bd 66 41 d4 bc 32 57 f8 3c 93 84 23 3d
       -0.054109015 -0.02591009 0.030315015 0.039921355
000260 c7 d8 a9 bd 4e 4c 17 bd 75 ed 7a 3d 40 2d 82 3d
       -0.082933 -0.036938004 0.061261613 0.06356287
000270 65 a1 ea bc ea 4c b4 bd 51 13 9b 3c bd 13 58 3d
       -0.028641412 -0.08803733 0.01893011 0.0527532
000280 76 c0 91 3d c4 15 8f bd 9c 4b 98 bd 82 8f 2b bd
       0.07116787 -0.06986573 -0.07436296 -0.041884907
000290 ed 2e 91 3c ea 79 ac bd e6 62 6f bd 29 d2 9c bc
       0.017722571 -0.08421691 -0.058443926 -0.01914318
0002a0 15 02 93 bc ee 38 b8 bb 71 ff df bc 61 4c 0b bb
       -0.017945329 -0.005622021 -0.027343484 -0.0021255242
0002b0 a7 1c 81 bd 85 c4 76 3d f0 cc 4b 3d 8b dd 48 bd
       -0.06304293 0.06024601 0.04975599 -0.049039405
0002c0 51 44 f7 3c 43 51 c0 3b c7 79 63 3d 01 07 f2 bc
       0.030183943 0.005869062 0.055536058 -0.029544355
0002d0 0e 48 cb 3c 1f 76 27 bc fe ff 23 bd 8a 03 8b 3d
       0.024814632 -0.010221033 -0.040039055 0.067877844
0002e0 e8 eb 8a bd d5 2c bc bd 61 20 9e 3c 0c 85 3c 3c
       -0.06783277 -0.091882385 0.019302549 0.01150633
0002f0 96 25 6b 3c e7 5d 02 3d 80 ba eb 3c 7f de 20 3d
       0.014352223 0.031827834 0.028775454 0.03927469
000300 0e 75 9c bd 1e 7d 34 3d bb 53 5e 3d b3 40 31 bd
       -0.07639514 0.044064634 0.05427907 -0.043274593
000310 25 d5 22 3c 55 b1 4c 3d d1 84 b3 3c a8 3b 88 3b
       0.009938513 0.049973805 0.021913918 0.004157502
000320 9c 4e 63 bd cc 9e 95 3d f2 ec 3b 3d 1c 98 bf 3c
       -0.05549489 0.07305679 0.045880266 0.023387961
000330 fd ea 59 bd 62 e8 a5 3c 00 6b 53 3c 14 a4 69 bd
       -0.053202618 0.02025241 0.012903929 -0.057041243
000340 a7 a7 cd bc 2a 33 aa bd 8c a8 83 3d b1 29 da bb
       -0.025104357 -0.0831054 0.06428632 -0.006657802
000350 48 36 14 3d d8 68 a6 bc 5f 8f 0e 3c ca 9e 00 3d
       0.03618458 -0.020313665 0.0087011745 0.031401433
000360 1e 1f 39 3d 87 d6 58 bc ab 09 97 bd 4a 69 83 bd
       0.04519569 -0.013234741 -0.07374891 -0.06416567
000370 ef 7e 26 3c ad c3 34 bc e3 b9 b8 b9 75 1c 81 3d
       0.010162099 -0.011032981 -0.0003523371 0.06304256
000380 3a 9c 9f bd 56 e8 5f 3d 23 84 f0 bc 66 5e 5f bc
       -0.0779347 0.054664932 -0.029359883 -0.013633346
000390 d5 d8 38 bd d1 4c 13 bd 4a 7f 89 3c 7e fd 75 bd
       -0.045128662 -0.03596193 0.016784329 -0.060056202
0003a0 49 a6 85 3d ba 94 19 3c ce e3 6f 3d fb b7 df bc
       0.06525857 0.009373838 0.05856686 -0.027309408
0003b0 f8 37 6f 3d 7e 69 f1 3a 39 24 8d bc af a4 d0 3c
       0.058402985 0.001841828 -0.017229186 0.025469152
0003c0 8a 4e 8e bd b4 84 24 bd 52 9a 7f bd 10 aa 2a bd
       -0.06948574 -0.040165618 -0.06240303 -0.04166609
0003d0 13 54 76 bd 37 4f 2b 3d 1d 6d 94 bd a9 9d 9c bb
       -0.060138773 0.041823592 -0.07247374 -0.0047795367
0003e0 31 c2 a6 bd 1b bb 0f bd bd d4 1a 3d 8c 74 c4 3c
       -0.08142508 -0.035090547 0.03780054 0.023981355
0003f0 bd 13 b3 3d 3e 1d 80 bc c0 21 a1 bd f2 2e 44 bd
       0.08743999 -0.015638944 -0.078677654 -0.047896333

fc2.bias f4 [128]
000000 ef 25 39 bd 79 24 0a bc d9 3e ff bc c6 47 45 bc
       -0.045202192 -0.008431547 -0.031157898 -0.012041038
000010 d0 5a 9d bb f4 69 35 3c 42 92 16 bd be 1d 9f 3d
       -0.0048020855 0.0110726245 -0.036760576 0.07769345
000020 ce b8 98 bd 85 08 4f bd b8 42 1e bc 17 f2 98 3d
       -0.07457124 -0.050545234 -0.009659462 0.0746805
000030 34 64 66 3d 01 2d b2 bd 7d 6f c8 3c e7 cf c3 bc
       0.056247905 -0.0869999 0.024467224 -0.023902847
000040 5d cd 73 bd 9d d3 48 3a 97 83 d6 3c b7 1b 84 bc
       -0.05952202 0.00076609274 0.026185794 -0.016126497
000050 0f 27 7e 3d 14 a8 84 3d cd e1 9a 3c a3 9a 92 bd
       0.062048968 0.06477371 0.018906498 -0.07158401
000060 33 af ad bd 6f 9d 84 bd 44 57 52 3d be d5 ab 3d
       -0.08480682 -0.064753406 0.051352754 0.083903775
000070 94 6b 9b bd 37 a0 9a 3d d8 9a 34 bd 37 41 49 3c
       -0.07588878 0.0755009 -0.044092983 0.012283615
000080 ec 25 a1 bd 28 20 73 bc 5f 7a 82 3d 9e 6e 50 3c
       -0.07868561 -0.01483921 0.06370997 0.012721686
000090 6a 32 58 3c 9d 17 26 3c 4b 6b 37 3d 20 a4 dd 3c
       0.013195613 0.010137466 0.044780057 0.0270558
0000a0 85 d8 6d bd fe 3b 61 bd 51 1f 4a bc 5b 22 f1 3c
       -0.058067817 -0.054988854 -0.012336568 0.029435327
0000b0 43 32 96 bc 75 d8 b1 bd 5b d8 0c 3d b9 13 90 bd
       -0.018334514 -0.08683864 0.03438602 -0.07035012
0000c0 86 4c 69 bd 15 a8 00 3d 93 fb 1c bc b2 c6 15 bd
       -0.056957744 0.031410296 -0.009581464 -0.036566444
0000d0 8a 55 9c bd 1e 0a 04 bc 0f 4f 1d bd a5 0b fe 3c
       -0.07633503 -0.008059053 -0.038405474 0.031011412
0000e0 dc 35 79 3d 08 11 8f bd 48 22 35 3d 0d e3 56 bc
       0.06084238 -0.0698567 0.044222146 -0.013115657
0000f0 82 7e 5a 3d 07 49 90 bc 36 f7 68 bc 18 47 22 bd
       0.053343304 -0.017612947 -0.014219096 -0.03961858
000100 75 c0 9a bd 91 af 1f bd c9 0d 1c bd 3a 2c 37 3c
       -0.075562395 -0.038985793 -0.038099084 0.011179978
000110 1e d0 7f bd 3a a4 88 3d 6e 79 b7 bc 18 39 a2 bd
       -0.062454335 0.06671949 -0.02239677 -0.07921046
000120 6f c1 6a bd cc f6 40 3d c3 50 40 bd f7 a6 ee 3c
       -0.05731338 0.047110364 -0.04695202 0.02913235
000130 bb 51 ab 3d e6 75 f5 bb 50 17 27 3d bd ff 51 bc
       0.08365198 -0.007490861 0.040793717 -0.01281732
000140 37 93 a6 bd 7e 79 89 3c ae 54 56 bd 33 7b 9d 3d
       -0.08133548 0.016781565 -0.05232685 0.07689514
000150 a7 f8 60 bd 73 41 f9 bc f2 f2 33 bc b6 99 07 3d
       -0.054924633 -0.030426716 -0.010983216 0.033105575
000160 32 32 49 bd af bc 9f bd c4 29 15 3d 3f 7b 8a bd
       -0.049120136 -0.077996604 0.036416784 -0.067617886
000170 6b 62 ad bd d1 ee 3d 3d f4 df 85 bd fa a6 a2 bd
       -0.08466037 0.04637033 -0.06536856 -0.079420045
000180 da 70 83 bd ba b2 2d bc fc 33 8d bd e3 57 91 3c
       -0.06418009 -0.010601694 -0.06894681 0.017742103
000190 7b 2c c8 bc c8 10 8d bd 76 c3 c2 bd e3 95 52 bd
       -0.024435272 -0.068879664 -0.095099375 -0.051412474
0001a0 93 67 89 bd 57 8f a3 bd d3 4a 6f 3d 52 33 8d bc
       -0.06709208 -0.07986324 0.058420967 -0.017236385
0001b0 d2 bd 6a 3d e0 bf 58 3d 9e 5f 2e bd 2b 9c 94 3d
       0.057309933 0.05291736 -0.042571656 0.07256349
0001c0 36 66 4b bb 4b e7 ad 3d 57 66 ea bc b3 d1 4d bd
       -0.0031036264 0.08491381 -0.028613253 -0.050248813
0001d0 23 1a 84 bd fc 0f 9f 3c 6f fd 84 3d 1f 71 43 3d
       -0.06450298 0.019416802 0.06493651 0.047715303
0001e0 c6 e2 c8 3c c8 21 e4 3c 57 eb 8f 3d 04 fb 9d bc
       0.024522197 0.02784814 0.070273094 -0.019284733
0001f0 12 f8 7f 3d c2 1d 38 bd ad b0 37 3d 71 49 c3 bc
       0.062492438 -0.044950254 0.044846226 -0.02383873

fc3.weight f4 [128, 128]
000000 5a 79 84 bd 32 8b 61 3d 1d 56 b8 bd 30 68 00 bd
       -0.064684585 0.055064388 -0.090008 -0.03134936
000010 25 55 b0 3c 97 e1 3b be 3e d2 cc 3c 4a f0 5a 3d
       0.021524975 -0.18347774 0.025002595 0.053451814
000020 34 96 ee 3b c4 56 34 3d 46 98 34 be 25 c5 6b be
       0.007281089 0.04402806 -0.17636213 -0.23024423
000030 7b c9 49 bc 75 76 4d 3d 30 93 04 bd 1c 9c e9 bc
       -0.012316103 0.050161798 -0.03236693 -0.028516822
000040 af 8c 3d 3c a3 66 36 3c 9a 5a 88 3d c1 7f 06 3d
       0.011569186 0.011132869 0.06657906 0.03283668
000050 e0 1c 91 3b 84 ac 8e 3c da 14 7b 3d 4f 0d 95 bd
       0.004428491 0.017416246 0.061299182 -0.07277929
000060 dc d9 06 bd 54 64 ab bc 97 5c 79 bd 0f e6 9f 3a
       -0.03292261 -0.020921864 -0.060879316 0.00121993
000070 af ec 28 3d f9 11 57 3d a9 7b 63 3d c2 b1 ac bd
       0.041241344 0.052507374 0.055537853 -0.08432342
000080 b8 4d 0a be 95 15 8f 3d d8 90 98 bc b1 17 fd 3c
       -0.1350621 0.06986538 -0.018623754 0.030895086
000090 52 21 e6 bd be b8 26 bd 5d 49 8f bd 99 e1 1a 3a
       -0.11236824 -0.040703528 -0.06996415 0.00059082505
0000a0 d0 b8 84 3d 67 54 34 bd 86 e7 6c be a4 3e 21 3c
       0.06480563 -0.044025805 -0.23135194 0.009841595
0000b0 4a 70 6c be 15 85 63 bd e6 b6 32 bb d8 fe a2 3d
       -0.2308971 -0.05554684 -0.002726966 0.07958764
0000c0 68 14 34 3b 6c 5d 0e bf 4e 10 1c bd 83 61 5b 3c
       0.0027477983 -0.556113 -0.038101487 0.013389948
0000d0 b9 49 6c bd d7 41 35 bd f2 fa 5f bd c1 47 4b 3c
       -0.057687495 -0.044252243 -0.05468268 0.012407244
0000e0 e4 61 b4 bd 78 79 24 3d fd d6 64 bc 5d 05 ae bc
       -0.08807734 0.040154904 -0.013967273 -0.021242792
0000f0 38 87 a3 3d c3 ae 5e 3d 13 63 8f 3d 02 4f 2e be
       0.07984775 0.054365885 0.07001319 -0.17022327
000100 5b 7a 8a 3d 08 d6 46 be 0c 97 af 3d 75 32 99 3d
       0.06761619 -0.19417584 0.08573732 0.07480327
000110 7e 3c 3f 3c 78 53 0e be 64 a8 20 be 35 a3 c1 bb
       0.011672137 -0.13899028 -0.15689236 -0.0059093484
000120 0d db da bc ec aa 00 be e6 63 7d bc 1f 80 48 3d
       -0.02671578 -0.12565202 -0.015465712 0.04895031
000130 4b e3 23 be c9 61 70 be 0f 0e 4f 3d 7e e5 64 bc
       -0.16004674 -0.23474802 0.050550517 -0.013970731
000140 d0 e8 94 3c 14 17 8f bd 2f eb 41 bc 10 c1 35 3d
       0.01817742 -0.06986824 -0.011835857 0.044373572
000150 be 91 5e bd 0f 9f 1f 3d 95 db 3f bd 34 cc 61 3d
       -0.05433821 0.03897005 -0.04684027 0.055126384
000160 61 00 e0 bc 6e bd 80 bd 37 3d 8b be b6 9c df bc
       -0.02734393 -0.06286131 -0.2719514 -0.027296405
000170 a0 e4 29 bd 5d 48 97 bd c5 52 9c 3d dd 0c 80 3d
       -0.0414778 -0.07386849 0.076329745 0.062524535
000180 f3 64 b3 bc 2e 1d 97 bd ab e3 58 bd c0 ba 99 bd
       -0.021898722 -0.073786125 -0.052951496 -0.07506323
000190 6a 3f a5 3d b7 2a 41 3c 5f 69 29 3d ee 87 6e 3d
       0.08068736 0.011789969 0.041360255 0.0582351
0001a0 c5 92 7a bd 52 46 7f 3d 1b 8d 3a 3d 48 5b b1 3c
       -0.061175127 0.062322922 0.045544725 0.021649972
0001b0 4e fd 88 bd 8b c1 df 3c 28 29 f4 be 1f 0b fb bc
       -0.06688939 0.027313968 -0.4768765 -0.030644951
0001c0 9f ff 80 bc 2a e8 4e 3d 2b 24 21 bc a8 d6 af be
       -0.01574689 0.050514378 -0.009835283 -0.34343457
0001d0 a8 55 07 bd e8 0a 18 be 23 5a 52 bd c4 ad bd bb
       -0.033040673 -0.1484791 -0.051355492 -0.0057885367
0001e0 6f d8 18 3d 03 bc 89 3c 99 49 2a bd bd 16 f6 3a
       0.037315782 0.016813284 -0.041574094 0.0018775087
0001f0 9b 88 8e 3d d3 87 47 bd 53 80 01 be 36 11 44 bd
       0.06959649 -0.048713516 -0.12646608 -0.047867976
000200 ec 43 9a bd 6e fe a1 bd e0 63 69 bd 01 d8 a7 3c
       -0.07532486 -0.07909857 -0.056980014 0.02048874
000210 82 46 2d bd 52 8c a8 bc ef 6b a5 bd d6 69 e5 3c
       -0.04230357 -0.020574722 -0.08077227 0.028004568
000220 07 ea 5b 3d c1 0d 5a 3d ee 1f 8f bc 0c 79 8d bd
       0.053689983 0.053235773 -0.01747128 -0.069078535
000230 ef 96 8d bd 69 82 9e bd d1 c0 98 bc 69 be 74 bd
       -0.06913554 -0.077397175 -0.01864663 -0.0597519
000240 48 8c 83 bd bf 6d 93 bd 28 12 dc 3c 4e ea 3c 3c
       -0.06423241 -0.07198667 0.026864126 0.011530472
000250 47 60 8b bd 3f c8 39 bd e2 23 cc bb 28 a6 ea bc
       -0.06805473 -0.045356985 -0.0062298635 -0.028643683
000260 f9 ed 98 bd 29 11 fa bc 93 90 0f 3c 96 24 1d bc
       -0.07467265 -0.03052576 0.0087624965 -0.009591242
000270 bf 2b 08 3c 21 f3 8e 3c 01 c9 85 3d 1e 0f 3b 3d
       0.008311211 0.017449917 0.06532479 0.045668714
000280 4c c4 35 3d f4 08 9d bd 62 29 3e 3c 33 ae 25 bd
       0.044376656 -0.07667723 0.011606546 -0.040449332
000290 b9 d9 83 ba 9e d2 0f 3d d9 ac af bd 55 ba 55 bc
       -0.0010059393 0.03511297 -0.0857789 -0.013044913
0002a0 b2 55 c1 3c 78 fe 3a 3a 92 e7 2a 3d b6 44 8a 3d
       0.023600433 0.0007133256 0.04172475 0.06751387
0002b0 ec cf 09 bd 04 74 c9 3c 78 e1 ae bd 1b 46 e9 bc
       -0.033645555 0.024591453 -0.085390985 -0.028475812
0002c0 db c1 92 3c 88 8f 13 3c 32 56 36 3c 30 3d db bb
       0.017914703 0.0090063885 0.011128949 -0.0066906437
0002d0 b8 69 30 bc 7d 95 6b 3c 24 c9 1f 3d 24 6b 80 bd
       -0.010767393 0.0143789025 0.039010182 -0.062704355
0002e0 1e d6 d7 3b 63 ab 39 3d 1c 29 e7 bc fc 16 b2 bd
       0.006586804 0.045329463 -0.028217845 -0.0869579
0002f0 14 22 e0 3c cc 37 63 3d 5b 9e 35 3d 86 a3 86 bd
       0.02736 0.055473134 0.044340473 -0.06574158
000300 6c e2 87 bd 10 60 b5 bd 05 aa 84 3d 71 e6 58 3c
       -0.066349834 -0.08856213 0.06477741 0.013238535
000310 c1 ed aa 3d 72 91 b0 bd 97 b7 55 3d 65 cb 87 3d
       0.08346129 -0.086214915 0.052177038 0.06630591
000320 54 ed 95 3d 16 cb 42 3b 4b d1 15 3b e8 44 16 bd
       0.07320657 0.00297231 0.0022860344 -0.036686808
000330 5c 68 f1 3c a7 d8 91 3d a8 27 5c 3c be bb 0e 3d
       0.029468708 0.07121401 0.013437189 0.034847014
000340 9d 05 54 3d 41 a2 0c bd 2a 56 ee 3c d3 3f 93 bd
       0.051763166 -0.034334425 0.02909382 -0.07189908
000350 e8 e5 86 3d 0b f8 13 bd dd 1f 5f bc 12 aa b2 3c
       0.0658682 -0.036125224 -0.013618437 0.021809611
000360 e4 c2 8d 3c cc 99 51 bd f3 6e 7a bd f6 bf ad bd
       0.017304845 -0.051172063 -0.061140966 -0.08483879
000370 03 4e 4a 3d 79 09 9f bd e5 be 4a 3d 98 41 9a 3d
       0.049390804 -0.07765479 0.049498457 0.07532042
000380 15 6c b2 3d c5 cc 12 bd 76 67 bc bd cb da 8c 3d
       0.08712021 -0.035839815 -0.09199421 0.06877669
000390 75 86 a6 3d 81 ca 82 3d 2f b2 07 3c 37 44 02 3d
       0.081311144 0.06386281 0.008282228 0.031803336
0003a0 c3 15 a4 bd 71 c0 9c bc ed 01 6b 3d ef 45 f5 3c
       -0.08011963 -0.019134732 0.057374883 0.029940573
0003b0 f7 fe 06 3d aa 54 b2 bd 57 cb 45 bd 97 a7 90 3d
       0.032957997 -0.08707555 -0.048289623 0.07063215
0003c0 b6 94 49 3d 01 fe bf bc 04 97 0e bc 48 2c 1a bd
       0.049214087 -0.023436548 -0.008702997 -0.037639886
0003d0 0f 84 a3 bc 76 5b a1 bd f6 91 98 3d 02 66 10 3c
       -0.019960431 -0.07878773 0.07449715 0.008813383
0003e0 86 8f 27 bd 65 18 a7 bd 9d 92 af 3d 62 d9 11 3d
       -0.04090836 -0.0815895 0.08572886 0.035607703
0003f0 88 7c f1 bc 22 1f b1 3c e1 37 49 bd 79 07 08 3d
       -0.029478326 0.02162129 -0.049125556 0.03321025

fc3.bias f4 [128]
000000 05 7f ed bc c7 7e 3e 3c e7 62 75 bd ce ee b9 3d
       -0.028991232 0.011626906 -0.059908774 0.090787515
000010 c7 d2 a8 3d 3f 2f 23 3e d4 79 c0 bd e7 45 b4 bc
       0.082433276 0.15935992 -0.09398237 -0.022005988
000020 4a 9d 84 3d 0c bb 70 3d 55 3d 2a 3d 5f 25 a7 bd
       0.06475313 0.05877213 0.041562397 -0.08161425
000030 77 3c e2 bc d5 6e 31 bd 84 15 ae bd 77 b7 a1 3d
       -0.027616723 -0.04331859 -0.085001975 0.07896321
000040 0c 1a 0f bd b1 19 16 b9 51 de 3d 3d 4e fd 3d bd
       -0.03493695 -0.00014314686 0.046354596 -0.04638415
000050 47 aa 1a bc 42 f0 d3 bc 98 fc e7 bc 1d 9e a7 3c
       -0.009440011 -0.0258714 -0.028318688 0.020461136
000060 df 09 c7 bd 17 20 87 3d 7a f7 b1 bd 01 0c 2b 3a
       -0.0971868 0.065979175 -0.086897805 0.0006524921
000070 e3 0a 71 bd a8 88 85 bd 3f d6 17 bb 0d 06 1f 3d
       -0.058848273 -0.06520206 -0.0023168472 0.03882413
000080 24 7d 84 bd 7e 18 bf bd 7e 1a f7 bc db a6 9e 3d
       -0.06469181 -0.093308434 -0.030164 0.07746669
000090 86 19 8f bd 5a 4b 8e 3d c1 ed a2 bd 07 ed a5 3d
       -0.0698729 0.06947966 -0.07955504 0.0810185
0000a0 94 58 68 3c a7 c0 4f 3c 7f 53 04 3c 79 33 cd bb
       0.014181275 0.012680209 0.008076548 -0.0062622395
0000b0 6e eb 9c 3d c4 fb 16 bd 31 84 36 3d 33 0a 7e bd
       0.07662092 -0.036861196 0.04455966 -0.062021445
0000c0 b8 ec 2b be 82 7f 96 bd 44 6e ad 3d 7f 54 e3 bc
       -0.1678952 -0.07348539 0.08468297 -0.027750252
0000d0 78 96 9b 3d b5 e3 84 bd 1b d8 82 3d c3 1e 79 bd
       0.07597059 -0.06488744 0.06388875 -0.060820352
0000e0 88 68 92 bd 1c d8 12 3d ca f6 83 bd eb b5 1f 3d
       -0.07148844 0.03585063 -0.06443556 0.03899185
0000f0 9e 7f ab 3d 58 06 59 bd ce 93 ca bc d9 a6 74 bd
       0.083739504 -0.052984565 -0.024728682 -0.05972943
000100 46 13 b8 bd 03 30 fb bb 53 58 ac bd d7 b9 80 3d
       -0.08988051 -0.0076656356 -0.08415284 0.06285446
000110 4f 13 be bd b6 cd 22 3c f9 98 8f bd 83 ff be 3c
       -0.092810266 0.009936741 -0.07011599 0.023315197
000120 35 20 66 3d b9 86 42 bd b2 f1 28 3c fe 95 b1 bd
       0.05618306 -0.047491763 0.010311531 -0.08671187
000130 97 ca 8e 3d e1 b0 82 3d 25 01 d8 3c c4 d0 7c bd
       0.06972235 0.06381393 0.026367733 -0.061722532
000140 b7 c3 a7 3d fd 12 9b 3b 3d cc c9 3c 17 9e 07 bd
       0.081916265 0.004732488 0.024633521 -0.03310975
000150 bc 71 93 3d 47 52 9f bd 1e c9 22 bd 8a de ce bb
       0.071994275 -0.07779365 -0.03974258 -0.00631315
000160 bb 4e 8c 3d 54 1b 63 3c 7b 05 97 3d 7e 80 3b 3d
       0.06850954 0.013861496 0.07374092 0.045776837
000170 1d 8f b6 3d 53 60 83 3d 3b 3b 28 bc 45 f9 4f bd
       0.089140154 0.06414857 -0.010268028 -0.05077483
000180 b1 6a 01 bd 89 96 3b bd c6 43 34 be 02 d0 3b bd
       -0.03159589 -0.04579786 -0.17603979 -0.04585267
000190 65 d5 39 3d 38 0e 3f 3d 35 43 10 3c 34 18 25 bd
       0.045369525 0.04664442 0.008805086 -0.040306285
0001a0 27 fa bb bd ee 82 49 bd 1a 8f ac bd fb 66 7d bd
       -0.09178572 -0.04919713 -0.08425732 -0.061865788
0001b0 56 46 4e 3d f6 d7 77 3d 6f 1d 0f bd b4 8c 67 bd
       0.050360046 0.06050869 -0.03494018 -0.05653067
0001c0 b2 e9 ad 3d 53 3e af 3d 19 8a 21 bc 4a 8c 8f bd
       0.084918395 0.08556809 -0.009859585 -0.0700918
0001d0 27 ab cd bd b2 2d 0b bd 4c 8f 08 bd 00 77 a7 bc
       -0.1004241 -0.033979125 -0.033339784 -0.020442486
0001e0 01 ed a5 bd e6 16 3d bd 43 72 81 bd 82 80 a5 3d
       -0.081018455 -0.046164416 -0.06320622 0.080811515
0001f0 a3 15 b9 bc 4c 8b 42 bd 44 9e 23 3d 55 00 64 bd
       -0.022593325 -0.047496125 0.039945856 -0.05566438

fc4.weight f4 [1, 128]
000000 37 a5 1d be e7 38 9f bc e6 e2 45 3b aa dc ee bd
       -0.15395056 -0.019436313 0.0030195056 -0.11663182
000010 cb e6 06 bf c2 59 d3 be db dd 2b 3d 6e cc df 3d
       -0.5269591 -0.41279417 0.041959625 0.10927664
000020 db 7d dc 3d dd 48 d4 3d aa 63 4e 3d cf 43 21 3d
       0.107661925 0.1036546 0.050388016 0.039371308
000030 5a 78 8f bd cc 42 0c 3d cf 5c 8e be d8 98 b2 3d
       -0.07005377 0.03424339 -0.27805182 0.08720559
000040 a4 93 7d bb 5d f2 2b 3d 2e f6 8a 3d 49 32 84 3d
       -0.0038692737 0.041979183 0.06785236 0.06454904
000050 e5 e0 92 bd 73 bd 74 bd 16 af d0 bc fd 95 b0 bd
       -0.071718015 -0.059750985 -0.025474112 -0.08622358
000060 48 44 89 3d 3f f0 07 be 57 7f 8b bd 21 b8 64 3a
       0.06702477 -0.1327524 -0.068113975 0.0008724947
000070 c7 a1 9b 3c 4d 44 4d bd 2e 63 89 bb 7d ac 95 3d
       0.01899804 -0.050113965 -0.0041927313 0.0730829
000080 ff 0c 96 3d 3b 8e bd bb f7 a7 de 3d ec 8f cc be
       0.073266976 -0.0057847775 0.108718805 -0.39953554
000090 51 e4 96 3d 3b ad a4 be 39 2b a8 3b dc a4 e1 3d
       0.07367767 -0.32163414 0.0051321057 0.110177726
0000a0 fb 02 12 bd 85 39 f9 3d 44 9c 12 bd 36 9e 93 3d
       -0.035647374 0.12169174 -0.035793558 0.07207911
0000b0 66 ab 08 bd 55 65 e8 3d 6a d9 dc 3d de 3f a8 3d
       -0.033366583 0.113474526 0.10783656 0.08215307
0000c0 97 92 96 be 2b 91 11 bd d8 48 94 3d 69 7c ef be
       -0.29408714 -0.035538834 0.07240456 -0.46774605
0000d0 b5 48 9f bc 30 10 4c be 09 34 ab 3d 66 40 f6 3d
       -0.01944385 -0.1992805 0.08359534 0.12024002
0000e0 a3 0b a6 3d 6d 6f 8e bc 77 06 7c bd ef c0 a2 3d
       0.08107688 -0.017387116 -0.061529603 0.079469554
0000f0 8d 90 49 3d 25 fd 68 bd 74 e9 a1 3b d8 45 4e 3d
       0.04921012 -0.056882042 0.00494116 0.050359577
000100 eb b3 e2 3c 3b 4b 94 bd 40 1a 12 3e 2c f0 82 bd
       0.027673682 -0.072409116 0.14267826 -0.063934654
000110 61 46 35 3e 8f 07 83 3d 89 d5 4a bd fb de f3 ba
       0.17702629 0.06397926 -0.04952005 -0.0018605882
000120 1a 9b 22 bd 18 04 12 3d 33 de a8 3b a9 53 44 bd
       -0.039698698 0.035648435 0.0051534413 -0.047931347
000130 69 a9 87 bd 64 92 8d ba 77 92 05 bd c2 bb 33 bd
       -0.06624109 -0.0010801074 -0.032610383 -0.04388023
000140 af eb 8e 3d d4 70 8d bd 42 ad 5c bd ae 9b 21 3e
       0.06978547 -0.06906286 -0.05387617 0.15782043
000150 88 aa 19 be 1e 3d f4 3d 5c 80 51 bd e2 dc 58 bd
       -0.15006459 0.1192572 -0.051147804 -0.052945025
000160 ed b2 34 3d f3 28 1d bd a2 19 da bd 89 dd 3a bd
       0.04411595 -0.03836913 -0.1064942 -0.04562143
000170 f6 b2 a6 3d 66 d7 4f 3d ef ea a2 bc 50 d0 ae bc
       0.08139603 0.05074253 -0.019887416 -0.021339566
000180 5e c9 8f bd ec 8c 03 3e 7e 1c 8e be 12 f6 38 bd
       -0.070208296 0.12846726 -0.27756113 -0.045156546
000190 9c b1 b1 3d ef 80 85 3d 0a 58 de 3b 8e 8f fb 3d
       0.086764544 0.06518733 0.0067853974 0.1228324
0001a0 31 e2 92 bc 85 db 35 3e 56 09 1c bd 70 b4 a6 3d
       -0.017930122 0.17759521 -0.03809484 0.081398845
0001b0 33 d1 a0 3d 53 95 ad 3c 5c d3 3a 3e 99 02 f0 bc
       0.078524016 0.021189367 0.1824469 -0.029298114
0001c0 f4 dd 91 3d b3 0d a3 3d 16 60 ab bb b7 13 ce bc
       0.07122412 0.07961597 -0.00522996 -0.025155885
0001d0 2a 00 2b be 71 a1 c5 3d 57 6b b9 bc 5a d8 0b 3d
       -0.16699281 0.09649933 -0.022634191 0.034141876
0001e0 1e 49 78 be d7 29 90 bd dd 03 db ba 56 ad 92 bc
       -0.24246642 -0.0703923 -0.0016709525 -0.017904919
0001f0 fb f4 55 bd 7e bf 8e 3d de 3b 3e 3d 4f c7 4c 3d
       -0.052235585 0.06970118 0.046443813 0.049994763
