complete_verifier/exp_configs/vnncomp22/before_submission/nn4sys_indexing/nets_pytorch/lindex_tested.pth (torch, 136695 bytes, 7 tensors)

fc1.weight f4 [128, 1]
0	0xbd8c8b50	-0.06862509
1	0xbffef7a4	-1.9919324
2	0xbdc1a7a0	-0.094558
3	0x3e3b1238	0.18268669
4	0x3bb4b766	0.005515027
5	0xc0de35bc	-6.9440594
6	0x3e8c940c	0.274567
7	0xbf04107a	-0.5158764
8	0x3eecbd30	0.4623809
9	0x3f1a1d15	0.60200626
10	0xbf19fdd4	-0.60152936
11	0x3ec46f0a	0.38365966
12	0x3fa5f2a9	1.2964679
13	0x3f36bccb	0.71381825
14	0x3fc0071f	1.5002173
15	0xc11d3705	-9.8259325
16	0x3f2e8c6c	0.68183017
17	0x3fe0b4ca	1.7555172
18	0xbf3fb314	-0.74882627
19	0xbddebb60	-0.10875583
20	0x3f56b7e8	0.8387437
21	0xbf63a516	-0.88923776
22	0xc00e9448	-2.2278004
23	0x3f1c1ee2	0.60984623
24	0x3f08bf3a	0.5341679
25	0xc08fe48d	-4.4966493
26	0xbecc7e9c	-0.39940345
27	0x3e612918	0.21988332
28	0x3f173b7d	0.59075147
29	0x3e5de320	0.21668673
30	0xbe0772e8	-0.13227427
31	0x3f40e95c	0.7535608
32	0xbeb6a588	-0.35673165
33	0xc111ee0c	-9.120617
34	0xbfb45b4d	-1.4090363
35	0xbf202540	-0.6255684
36	0x3e91c248	0.28468537
37	0xbf249454	-0.6428883
38	0xbf36889c	-0.713022
39	0x3f0694f2	0.5257102
40	0x3fc7850d	1.5587479
41	0xbf2bf6f4	-0.67173696
42	0xc0b23118	-5.568493
43	0xbf78656d	-0.97029763
44	0x3f8430ae	1.0327356
45	0xbdbe9530	-0.09305799
46	0x40461e6a	3.0956063
47	0xbf23da20	-0.6400471
48	0xc088abf3	-4.27099
49	0x400213f2	2.0324674
50	0x3fdad1c1	1.7095262
51	0x400eebfb	2.233153
52	0x3e8a0f64	0.26964867
53	0x3fbac446	1.4591148
54	0x3fb8faea	1.4451573
55	0xbf43ed62	-0.7653409
56	0xbf3b47ce	-0.7315644
57	0x3fb413df	1.4068564
58	0x3fb2b88e	1.3962572
59	0x3e1db5fc	0.15401453
60	0x3f9ab263	1.2085689
61	0xbf57f440	-0.8435707
62	0x3f952bb9	1.1653968
63	0x3f020c82	0.50800335
64	0x3fed9f65	1.8564268
65	0x3e276960	0.16348791
66	0xbe6fe2d8	-0.23426378
67	0x3edd732c	0.43251932
68	0x40001d4b	2.001788
69	0x3f46d4a5	0.7766822
70	0xc0f6b37c	-7.7094097
71	0xbf013a96	-0.5048002
72	0xc0a2222f	-5.066673
73	0xbf3d2596	-0.73885477
74	0xc10bdd9e	-8.741606
75	0x3fee2c27	1.8607224
76	0xbf4cd788	-0.80016375
77	0x40063ce5	2.0974667
78	0x3f997b99	1.1990844
79	0x3f5754d9	0.8411384
80	0xc05543cd	-3.3322632
81	0xbf504b26	-0.8136467
82	0x3ee22e79	0.4417608
83	0xc118e202	-9.555178
84	0xbf3f7165	-0.747824
85	0x3f94a138	1.16117
86	0xbe19fe30	-0.15038371
87	0x3fa31720	1.2741432
88	0xc078fbf3	-3.8903778
89	0x3f850614	1.039248
90	0x3f3ca3f0	0.7368765
91	0x3f8aeb07	1.0852975
92	0x3f3a888d	0.7286461
93	0xbeef14b0	-0.4669547
94	0x3eb147ac	0.34624994
95	0x3ec9c4c3	0.3940793
96	0xc117406c	-9.453228
97	0xbff80eca	-1.9379513
98	0xc113ce81	-9.237916
99	0x3fb4de16	1.4130275
100	0x3e172628	0.14760649
101	0x3f077e5f	0.529272
102	0xbe6fe880	-0.23428535
103	0xbecaa354	-0.39577734
104	0x3fba697d	1.4563442
105	0x4026f9d7	2.608999
106	0xbf3611dc	-0.71121
107	0x3ed8b9e4	0.42329323
108	0x3f963180	1.1733856
109	0xbfe3e988	-1.7805643
110	0x3f43deb6	0.76511705
111	0x3f3760fc	0.7163236
112	0xbf546b74	-0.8297646
113	0xbf24ab1c	-0.6432359
114	0x3f606302	0.87651074
115	0xbf72f0b7	-0.9489855
116	0x3f2afca3	0.66791743
117	0xbf777c34	-0.96673894
118	0xbf513537	-0.81721824
119	0xbdfb4cb0	-0.12270486
120	0x3d91a3a0	0.07111287
121	0xbef69c00	-0.48165894
122	0x3ecd11c0	0.40052605
123	0x40068774	2.1020174
124	0xbf55fed8	-0.83591986
125	0xbd1aad20	-0.03776276
126	0x3f1c556b	0.6106784
127	0x3f9a38b5	1.2048556

fc1.bias f4 [128]
0	0xbeebf04c	-0.4608177
1	0x3eba7b14	0.36422026
2	0xbf37ef8e	-0.71849906
3	0x3e9eea8f	0.3103833
4	0xbbbb393a	-0.005713609
5	0x3e86bca0	0.26315784
6	0xbf3e1a22	-0.74258626
7	0xbeb0067c	-0.34379947
8	0xbf643c78	-0.8915477
9	0xbd2cd403	-0.042194378
10	0xbf5781a8	-0.84182215
11	0xbec65b62	-0.38741595
12	0x3c006542	0.007836642
13	0x3e64defc	0.22350687
14	0x3e04e2bb	0.12977116
15	0x3e627773	0.22115879
16	0x3f20da59	0.6283317
17	0x3c3842b7	0.011246375
18	0xbdeb3fe0	-0.114867926
19	0xbec3c8f0	-0.3823924
20	0xbbadb882	-0.005301536
21	0xbf50e610	-0.8160105
22	0x3ed20574	0.41019785
23	0x3ee1b994	0.44086897
24	0x3dddc373	0.108282946
25	0x3c95f3a4	0.018304653
26	0xbe905ae4	-0.28194344
27	0xbf52ab1a	-0.8229233
28	0x3f113f3b	0.5673711
29	0xbe99e188	-0.3005488
30	0xbec6c13c	-0.388193
31	0xbf420c8b	-0.7580039
32	0xbf289ba4	-0.6586249
33	0x3e0ec89c	0.13943714
34	0x3ea5059c	0.32230842
35	0xbf60ea5a	-0.8785759
36	0xbf61a970	-0.88149166
37	0xbe09eb30	-0.13468623
38	0xbf56c570	-0.83895016
39	0xbb555b2a	-0.0032555559
40	0x3be3c990	0.0069515184
41	0xbf39b990	-0.7254877
42	0x3e183bd5	0.14866574
43	0x3eaae79c	0.3337983
44	0x3d3c8d9e	0.046033494
45	0xbf38ab62	-0.7213651
46	0x3de90917	0.11378687
47	0xbf404b3e	-0.7511481
48	0x3ea7486b	0.32672438
49	0x3c588e09	0.013217458
50	0x3e26fd9d	0.16307683
51	0x3c930d3d	0.017950648
52	0xbf4d622a	-0.8022791
53	0x3e29de1f	0.16588639
54	0x3f3912fb	0.72294587
55	0xbe4c8368	-0.19972003
56	0xbeba1238	-0.36342025
57	0xbea5745e	-0.32315344
58	0x3c710fb8	0.01471322
59	0xbb6397ea	-0.0034728
60	0xbbf91694	-0.0076015685
61	0xbe976d00	-0.29575348
62	0x3f025bfb	0.509216
63	0xbf509d04	-0.81489587
64	0x3c57de37	0.013175539
65	0xbea8dc84	-0.3298074
66	0xbcef1680	-0.029185534
67	0xbf2416b6	-0.64097154
68	0x3be42d02	0.006963373
69	0xbb8e2124	-0.0043374468
70	0x3e1347fd	0.1438293
71	0xbf18c96c	-0.59682345
72	0x3d511a53	0.051050495
73	0xbf5fb742	-0.87389004
74	0x3da3f9aa	0.08006604
75	0x3d388ba9	0.045055065
76	0xbe88982c	-0.26678598
77	0x3c5319b5	0.012884547
78	0x3bdb5076	0.0066929413
79	0x3ebac23e	0.3647632
80	0x3ee38453	0.44436893
81	0xbf67b2d8	-0.9050727
82	0xbc95e65d	-0.018298322
83	0x3e8971ae	0.26844543
84	0xbb7579c1	-0.0037456604
85	0x3f42bc3f	0.7606849
86	0xbeb1081c	-0.345765
87	0xbc03099c	-0.0079978965
88	0x3ed58b67	0.41707918
89	0x3ed463a9	0.41482285
90	0x3f0c4dac	0.5480602
91	0xbd6bc7c9	-0.057563577
92	0xbb95d903	-0.004572989
93	0xbeb3377c	-0.3500327
94	0xbf3e02a8	-0.74222803
95	0xbc21bd14	-0.00987174
96	0x3e0b979f	0.13632058
97	0x3f2a1f97	0.6645445
98	0x3ed41b10	0.41426897
99	0xbe847790	-0.2587247
100	0xbeedc6e0	-0.46440792
101	0xbb56ccf7	-0.0032775977
102	0x3ef9c94d	0.48786393
103	0xbf55b7e2	-0.8348371
104	0x3f5f8b55	0.8732198
105	0x3f00aba0	0.5026188
106	0xbd9f4510	-0.077768445
107	0xbf754ada	-0.9581734
108	0xbd17aca8	-0.037029892
109	0x3e0332ca	0.12812343
110	0xbb9e0ad9	-0.0048230705
111	0xbb917e31	-0.004440092
112	0xbf5815e2	-0.8440839
113	0xbf7198e4	-0.9437392
114	0xbf65c431	-0.8975249
115	0xbc0db8d3	-0.008650023
116	0xbb8a37bd	-0.0042180703
117	0xbf0f01d4	-0.55862164
118	0x3f51bd15	0.8192914
119	0xbf7adf5c	-0.9799707
120	0xbf7186da	-0.9434639
121	0xbf60a5c8	-0.8775296
122	0xbefcddbc	-0.4938792
123	0x3d036870	0.03208202
124	0xbe94548c	-0.28970754
125	0xba5f8a49	-0.0008527381
126	0x3ee63639	0.44963244
127	0xbed42263	-0.41432485

fc2.weight f4 [128, 128]
0	0xbd25a85a	-0.040443756
1	0x3d88d4e0	0.06681228
2	0xbc9d16f9	-0.019175993
3	0xbd43de93	-0.047819685
4	0x3d279bd9	0.040920112
5	0x3d4d5f6f	0.05013984
6	0xbceabfe1	-0.028655948
7	0xbd86c43e	-0.06580399
8	0x3db2a034	0.087219626
9	0x3d73ece1	0.059552077
10	0x3d091d63	0.03347529
11	0x3c9753d0	0.018472582
12	0x3db81e04	0.089901
13	0xbd89014c	-0.066897005
14	0xbdd15887	-0.102219634
15	0x3cdc30d5	0.026878754
16	0x3c8df4ef	0.017328708
17	0x3de0bbdd	0.10973332
18	0x3da2b84c	0.07945308
19	0xbd9fe980	-0.078082085
20	0xbe97090a	-0.29499084
21	0xbd7ade28	-0.06124702
22	0x3d182e3b	0.037153464
23	0x3d876d67	0.06612664
24	0x3d8893a3	0.066687845
25	0x3d3ca845	0.04605891
26	0x3cc69785	0.024242172
27	0xbcd3d62f	-0.025858967
28	0x3c594a43	0.013262334
29	0xbd53bf29	-0.051695976
30	0xba8c0ff8	-0.0010685911
31	0x3d744ec4	0.05964543
32	0xbd8fcb3e	-0.07021187
33	0xbccb577d	-0.024821991
34	0x3d561224	0.052263394
35	0x3d0889b1	0.033334438
36	0x3d05928e	0.03261047
37	0x3ce18b99	0.027532386
38	0xbd355f21	-0.044280175
39	0x3d0ce8af	0.034401592
40	0x3db07975	0.08616916
41	0xbc929ee2	-0.017898027
42	0xbddf7257	-0.109104805
43	0xbcc069b2	-0.0234879
44	0x3d1ebec8	0.038756162
45	0x3bd0722a	0.0063612657
46	0x3d346f69	0.04405156
47	0xbd3ec183	-0.046571266
48	0xbd875d86	-0.06609635
49	0xbbcb7fc8	-0.006210301
50	0xbd8c0989	-0.06837756
51	0x3d2c8c4d	0.04212599
52	0xbd518f3b	-0.051161986
53	0xbd9032bd	-0.070409276
54	0xbd24e7ad	-0.040260006
55	0x3cab7717	0.02093081
56	0xbd5093b3	-0.050922107
57	0x3b00eec3	0.0019673563
58	0xb907f99f	-0.00012967594
59	0x3cc492bb	0.023995748
60	0xbe98141a	-0.29702836
61	0x3da492a2	0.080357805
62	0x3d7ba45d	0.061436046
63	0xbd6b07fe	-0.05738067
64	0xbd89287b	-0.06697174
65	0x3da22f1c	0.07919142
66	0xbd0aa2ea	-0.033846773
67	0xbc8ea3f2	-0.01741216
68	0x3c96af56	0.018394154
69	0x3d213938	0.03936121
70	0xbe02c748	-0.12771332
71	0xbd2fde7b	-0.042936783
72	0xbe033e02	-0.12816623
73	0x3cb596bf	0.022166608
74	0xbe6d5256	-0.2317594
75	0x3d6f77a5	0.05846371
76	0x3da7c844	0.081924945
77	0xbc352447	-0.0110560125
78	0x3dc36443	0.09540608
79	0xbdabc6b9	-0.08387513
80	0xbda5a631	-0.08088339
81	0xbba52d6d	-0.0050408156
82	0xbd733c04	-0.059383407
83	0xbb8ac398	-0.0042347424
84	0x3d1167f4	0.035499528
85	0xbd06359f	-0.03276598
86	0xbc2ca9e8	-0.010538556
87	0xbd6831cf	-0.056688126
88	0x3d6910f4	0.056900933
89	0xbd00592e	-0.03133505
90	0xbd067741	-0.032828573
91	0xbe340df1	-0.17583443
92	0x3c3fa414	0.011696834
93	0x3c515b1d	0.012778071
94	0xbd8cf1fc	-0.06882092
95	0xbd3ba446	-0.04581096
96	0xbddc3a2b	-0.10753282
97	0xbd536f75	-0.051619966
98	0xbd1b3811	-0.037895266
99	0xbe2f51d0	-0.17121053
100	0xbd8e53fc	-0.069496125
101	0xbdd34d2b	-0.10317453
102	0xbdc82344	-0.097723514
103	0x3d6dfca9	0.058102284
104	0x3d90cd01	0.070703514
105	0x3d00e767	0.031470682
106	0x3d9e9bf2	0.07744588
107	0x3d954604	0.07288745
108	0xbe7ec30a	-0.24879089
109	0xbc0425e9	-0.008065679
110	0xbd080889	-0.033211265
111	0xbd962a4f	-0.073322885
112	0xbd8d7ffb	-0.06909176
113	0x3d17b985	0.03704216
114	0x3d4828d0	0.048867047
115	0x3d492e32	0.04911632
116	0xbe90a8cb	-0.2825378
117	0x3d46535c	0.04841934
118	0x3d836330	0.06415403
119	0xb9c00d22	-0.00036630878
120	0x3d2bd44e	0.041950516
121	0xbcbf60fa	-0.023361672
122	0xbd3b1acb	-0.04567985
123	0x3d3d80cf	0.04626542
124	0x3d251aab	0.040308636
125	0xbd0e2b27	-0.034709122
126	0xbc29c153	-0.0103610335
127	0xbe0c787c	-0.13717836
128	0x3c32d58a	0.0109151695
129	0x3d0655c9	0.032796655
130	0x3ce8db2e	0.028424826
131	0xbd857d14	-0.065179974
132	0xbc96d2d5	-0.01841108
133	0x3d0d040f	0.0344277
134	0x3cf39217	0.029732747
135	0x3d9e293a	0.07722707
136	0x3d9e215c	0.077212065
137	0x3ae141c3	0.0017185736
138	0xbd6ea7f0	-0.058265626
139	0x3d3e7f66	0.046508215
140	0x3d37bc68	0.044857413
141	0xbd345450	-0.04402572
142	0x3d0f6da1	0.03501666
143	0x3d08360d	0.03325467
144	0xbd9aa876	-0.075516626
145	0xbcf98b9e	-0.030462082
146	0xbd1aa6f1	-0.037756864
147	0x3c28b807	0.010297782
148	0xbd5da16a	-0.054109015
149	0xbcd44166	-0.02591009
150	0x3cf85732	0.030315015
151	0x3d238493	0.039921355
152	0xbda9d8c7	-0.082933
153	0xbd174c4e	-0.036938004
154	0x3d7aed75	0.061261613
155	0x3d822d40	0.06356287
156	0xbceaa165	-0.028641412
157	0xbdb44cea	-0.08803733
158	0x3c9b1351	0.01893011
159	0x3d5813bd	0.0527532
160	0x3d91c076	0.07116787
161	0xbd8f15c4	-0.06986573
162	0xbd984b9c	-0.07436296
163	0xbd2b8f82	-0.041884907
164	0x3c912eed	0.017722571
165	0xbdac79ea	-0.08421691
166	0xbd6f62e6	-0.058443926
167	0xbc9cd229	-0.01914318
168	0xbc930215	-0.017945329
169	0xbbb838ee	-0.005622021
170	0xbcdfff71	-0.027343484
171	0xbb0b4c61	-0.0021255242
172	0xbd811ca7	-0.06304293
173	0x3d76c485	0.06024601
174	0x3d4bccf0	0.04975599
175	0xbd48dd8b	-0.049039405
176	0x3cf74451	0.030183943
177	0x3bc05143	0.005869062
178	0x3d6379c7	0.055536058
179	0xbcf20701	-0.029544355
180	0x3ccb480e	0.024814632
181	0xbc27761f	-0.010221033
182	0xbd23fffe	-0.040039055
183	0x3d8b038a	0.067877844
184	0xbd8aebe8	-0.06783277
185	0xbdbc2cd5	-0.091882385
186	0x3c9e2061	0.019302549
187	0x3c3c850c	0.01150633
188	0x3c6b2596	0.014352223
189	0x3d025de7	0.031827834
190	0x3cebba80	0.028775454
191	0x3d20de7f	0.03927469
192	0xbd9c750e	-0.07639514
193	0x3d347d1e	0.044064634
194	0x3d5e53bb	0.05427907
195	0xbd3140b3	-0.043274593
196	0x3c22d525	0.009938513
197	0x3d4cb155	0.049973805
198	0x3cb384d1	0.021913918
199	0x3b883ba8	0.004157502
200	0xbd634e9c	-0.05549489
201	0x3d959ecc	0.07305679
202	0x3d3becf2	0.045880266
203	0x3cbf981c	0.023387961
204	0xbd59eafd	-0.053202618
205	0x3ca5e862	0.02025241
206	0x3c536b00	0.012903929
207	0xbd69a414	-0.057041243
208	0xbccda7a7	-0.025104357
209	0xbdaa332a	-0.0831054
210	0x3d83a88c	0.06428632
211	0xbbda29b1	-0.006657802
212	0x3d143648	0.03618458
213	0xbca668d8	-0.020313665
214	0x3c0e8f5f	0.0087011745
215	0x3d009eca	0.031401433
216	0x3d391f1e	0.04519569
217	0xbc58d687	-0.013234741
218	0xbd9709ab	-0.07374891
219	0xbd83694a	-0.06416567
220	0x3c267eef	0.010162099
221	0xbc34c3ad	-0.011032981
222	0xb9b8b9e3	-0.0003523371
223	0x3d811c75	0.06304256
224	0xbd9f9c3a	-0.0779347
225	0x3d5fe856	0.054664932
226	0xbcf08423	-0.029359883
227	0xbc5f5e66	-0.013633346
228	0xbd38d8d5	-0.045128662
229	0xbd134cd1	-0.03596193
230	0x3c897f4a	0.016784329
231	0xbd75fd7e	-0.060056202
232	0x3d85a649	0.06525857
233	0x3c1994ba	0.009373838
234	0x3d6fe3ce	0.05856686
235	0xbcdfb7fb	-0.027309408
236	0x3d6f37f8	0.058402985
237	0x3af1697e	0.001841828
238	0xbc8d2439	-0.017229186
239	0x3cd0a4af	0.025469152
240	0xbd8e4e8a	-0.06948574
241	0xbd2484b4	-0.040165618
242	0xbd7f9a52	-0.06240303
243	0xbd2aaa10	-0.04166609
244	0xbd765413	-0.060138773
245	0x3d2b4f37	0.041823592
246	0xbd946d1d	-0.07247374
247	0xbb9c9da9	-0.0047795367
248	0xbda6c231	-0.08142508
249	0xbd0fbb1b	-0.035090547
250	0x3d1ad4bd	0.03780054
251	0x3cc4748c	0.023981355
252	0x3db313bd	0.08743999
253	0xbc801d3e	-0.015638944
254	0xbda121c0	-0.078677654
255	0xbd442ef2	-0.047896333

fc2.bias f4 [128]
0	0xbd832c76	-0.064049646
1	0xbc0a2479	-0.008431547
2	0xbe11a2e0	-0.14222288
3	0xbc4547c6	-0.012041038
4	0xbc4760e6	-0.0121690985
5	0xbdb9c1b0	-0.09070146
6	0xbd169242	-0.036760576
7	0x3d9f1dbe	0.07769345
8	0xbd98b8ce	-0.07457124
9	0xbd9b11aa	-0.075717285
10	0xbc9decfc	-0.019278042
11	0xbc0ba9a6	-0.008524334
12	0x3c1c8b32	0.009554671
13	0xbdb22d01	-0.0869999
14	0x3cc86f7d	0.024467224
15	0xbcc3cfe7	-0.023902847
16	0xbd9d81c6	-0.07690768
17	0x3a48d39d	0.00076609274
18	0x3c1791ea	0.009251097
19	0xbdb677c2	-0.08909561
20	0x3d3eb44a	0.046558656
21	0x3d84a814	0.06477371
22	0x3c9ae1cd	0.018906498
23	0xbd929aa3	-0.07158401
24	0xbdadaf33	-0.08480682
25	0xbd849d6f	-0.064753406
26	0x3d525744	0.051352754
27	0x3d8dea88	0.06929499
28	0xbd9b6b94	-0.07588878
29	0x3d9aa037	0.0755009
30	0xbd349ad8	-0.044092983
31	0xbe00d3fe	-0.12580869
32	0xbdbd6e89	-0.092495985
33	0xbc732028	-0.01483921
34	0x3d827a5f	0.06370997
35	0xbb4066e2	-0.0029358198
36	0xbd4e914f	-0.050431546
37	0xbc9469a2	-0.018116776
38	0x3d376b4b	0.044780057
39	0xbb5386cb	-0.0032276388
40	0xbd5ce6de	-0.05393111
41	0xbdd13cce	-0.10216676
42	0xbc65a668	-0.014016725
43	0x3ca4bfd2	0.020110998
44	0xbca81a1d	-0.020520264
45	0xbdb1d875	-0.08683864
46	0xbd14efa3	-0.036361348
47	0xbd9013b9	-0.07035012
48	0xbd694c86	-0.056957744
49	0x3d5d5242	0.054033525
50	0xbc1cfb93	-0.009581464
51	0xbd16c738	-0.036811084
52	0xbe0a7f57	-0.13525139
53	0xbc017c20	-0.007903129
54	0xbdc27623	-0.09495189
55	0xbc6f3772	-0.014600622
56	0x3d7935dc	0.06084238
57	0xbd8f1108	-0.0698567
58	0x388a2273	6.5867695e-05
59	0xbc56e30d	-0.013115657
60	0x3c5dbbaf	0.013533517
61	0xbc321514	-0.010869283
62	0xbd4bf039	-0.04978964
63	0xbdc191b5	-0.094516195
64	0xbdbe9d49	-0.093073435
65	0xbdf5c263	-0.11999967
66	0xbd1c0dc9	-0.038099084
67	0x3c372c3a	0.011179978
68	0xbd7fd01e	-0.062454335
69	0x3d997baa	0.0749429
70	0xbc3d0257	-0.011536202
71	0xbda23918	-0.07921046
72	0xbd6ac16f	-0.05731338
73	0x3d416221	0.047212724
74	0xbd4050c3	-0.04695202
75	0x3b71abdf	0.0036876125
76	0xbbacb9b7	-0.0052711624
77	0xbb3f1d2a	-0.002916167
78	0x3d271750	0.040793717
79	0xbd25c36c	-0.040469572
80	0xbd944c9e	-0.07241176
81	0x3c70a486	0.014687663
82	0xbd5654ae	-0.05232685
83	0x3d9d7b33	0.07689514
84	0xbd60f8a7	-0.054924633
85	0xbcf94173	-0.030426716
86	0xbc33f2f2	-0.010983216
87	0xbc4e42fd	-0.012589213
88	0xbd87c82d	-0.066299774
89	0xbe1f3c0c	-0.1555025
90	0x3d5ab7c1	0.053397898
91	0xbd98acdf	-0.074548475
92	0xbe152e75	-0.14568503
93	0x3d2730d9	0.04081807
94	0xbd85dff4	-0.06536856
95	0xbda2a6fa	-0.079420045
96	0xbd8370da	-0.06418009
97	0xbd042938	-0.03226587
98	0xbd8d33fc	-0.06894681
99	0xbd73290d	-0.05936532
100	0xbd5e2da5	-0.05424275
101	0xbdc17f3a	-0.09448095
102	0xbde1b510	-0.11020863
103	0xbd5295e3	-0.051412474
104	0xbd896793	-0.06709208
105	0xbda38f57	-0.07986324
106	0x3d577485	0.052601356
107	0xbccdcfbc	-0.02512347
108	0xbc9268ad	-0.017872179
109	0x3cf49a9d	0.029858882
110	0xbcb69f3c	-0.022292726
111	0x3d949c2b	0.07256349
112	0xbb4b6636	-0.0031036264
113	0x3d8c5d7c	0.06853768
114	0xbd67e776	-0.056617223
115	0xbdc965b5	-0.09833852
116	0xbd841a23	-0.06450298
117	0x3d400863	0.046883
118	0x3d4e3eb5	0.05035277
119	0x3d43711f	0.047715303
120	0xbca3fcb1	-0.020017954
121	0x3ce421c8	0.02784814
122	0x3d29f19e	0.04149019
123	0xbc9df367	-0.019281102
124	0x3d7ff812	0.062492438
125	0xbd381dc2	-0.044950254
126	0x3d717b96	0.05895575
127	0xbcc34971	-0.02383873

fc3.weight f4 [128, 128]
0	0xbdad9842	-0.084763065
1	0x3d618b32	0.055064388
2	0xbde3ed8f	-0.11129295
3	0xbd006830	-0.03134936
4	0x3cb05525	0.021524975
5	0xbe72c0f1	-0.23706414
6	0x3cccd23e	0.025002595
7	0x3d5af04a	0.053451814
8	0x3bee9634	0.007281089
9	0x3ccae5e4	0.024767824
10	0xbe4c86da	-0.19973317
11	0xbe6c95b6	-0.23103985
12	0xbcd0975f	-0.025462804
13	0x3d4d7675	0.050161798
14	0xbd049330	-0.03236693
15	0xbce99c1c	-0.028516822
16	0x3c3d8caf	0.011569186
17	0x3c3666a3	0.011132869
18	0x3d885a9a	0.06657906
19	0x3ccbf0c7	0.024895085
20	0x3b911ce0	0.004428491
21	0x3c8eac84	0.017416246
22	0x3d7b14da	0.061299182
23	0xbd950d4f	-0.07277929
24	0xbd06d9dc	-0.03292261
25	0xbcab6454	-0.020921864
26	0xbd795c97	-0.060879316
27	0x3a9fe60f	0.00121993
28	0x3d28ecaf	0.041241344
29	0x3d5711f9	0.052507374
30	0x3d637ba9	0.055537853
31	0xbdc12ac5	-0.09431986
32	0xbe2ab271	-0.16669632
33	0x3d8f1595	0.06986538
34	0xbc9890d8	-0.018623754
35	0x3c269853	0.010168153
36	0xbe38a7c0	-0.18032742
37	0xbd26b8be	-0.040703528
38	0xbd8f495d	-0.06996415
39	0x3a1ae199	0.00059082505
40	0x3d84b8d0	0.06480563
41	0xbd86d12e	-0.065828666
42	0xbe7a549e	-0.24446341
43	0x3c213ea4	0.009841595
44	0xbe7285e0	-0.23683882
45	0xbd638515	-0.05554684
46	0xbc12cc91	-0.008959905
47	0x3da2fed8	0.07958764
48	0x3b341468	0.0027477983
49	0xbefbaa55	-0.4915339
50	0xbd1c104e	-0.038101487
51	0x3c5b6183	0.013389948
52	0xbda21493	-0.079140805
53	0xbd5b21b2	-0.05349893
54	0xbd879e6d	-0.06622014
55	0x3bdf1b31	0.0068086614
56	0xbdb461e4	-0.08807734
57	0x3d247978	0.040154904
58	0xbd09fb28	-0.033686787
59	0xbcae055d	-0.021242792
60	0x3d6d91f4	0.05800052
61	0x3d0847de	0.033271663
62	0x3d80e622	0.06293894
63	0xbe567304	-0.20942312
64	0x3d8a7a5b	0.06761619
65	0xbe7a5461	-0.2444625
66	0x3daf970c	0.08573732
67	0x3d993275	0.07480327
68	0x3c3f3c7e	0.011672137
69	0xbe29de66	-0.16588745
70	0xbe462947	-0.19351684
71	0xbbc1a335	-0.0059093484
72	0xbcdadb0d	-0.02671578
73	0xbe0cbd2c	-0.13744038
74	0xbc7d63e6	-0.015465712
75	0x3ce950b0	0.028480858
76	0xbe5a0064	-0.21289212
77	0xbe58311a	-0.21112481
78	0x3d4f0e0f	0.050550517
79	0xbc64e57e	-0.013970731
80	0x3c94e8d0	0.01817742
81	0xbd8f1714	-0.06986824
82	0xbc41eb2f	-0.011835857
83	0x3d35c110	0.044373572
84	0xbd5e91be	-0.05433821
85	0x3d1f9f0f	0.03897005
86	0xbd3fdb95	-0.04684027
87	0x3d44e313	0.048068117
88	0xbd40b9f9	-0.047052357
89	0xbd987697	-0.07444494
90	0xbee9d50b	-0.4567035
91	0xbcdf9cb6	-0.027296405
92	0xbd4ce1b1	-0.050019924
93	0xbd97485d	-0.07386849
94	0x3d9c52c5	0.076329745
95	0x3d800cdd	0.062524535
96	0xbcb364f3	-0.021898722
97	0xbdc155ee	-0.09440218
98	0xbd58e3ab	-0.052951496
99	0xbdcc89fe	-0.099872574
100	0x3da56732	0.080763236
101	0x3c412ab7	0.011789969
102	0x3d29695f	0.041360255
103	0x3d6e87ee	0.0582351
104	0xbd7a92c5	-0.061175127
105	0x3d7f4652	0.062322922
106	0x3d3a8d1b	0.045544725
107	0x3cb15b48	0.021649972
108	0xbda62f9b	-0.08114549
109	0x3bef3ddd	0.007301076
110	0xbf04ad16	-0.5182661
111	0xbcfb0b1f	-0.030644951
112	0xbc80ff9f	-0.01574689
113	0x3cf6392e	0.030056562
114	0xbc21242b	-0.009835283
115	0xbeb8b4af	-0.3607535
116	0xbd0755a8	-0.033040673
117	0xbe1008ac	-0.14065808
118	0xbd525a23	-0.051355492
119	0xbbbdadc4	-0.0057885367
120	0x3cfc2248	0.030778065
121	0x3c89bc03	0.016813284
122	0xbd2a4999	-0.041574094
123	0x3af616bd	0.0018775087
124	0x3d8e889b	0.06959649
125	0xbd4787d3	-0.048713516
126	0xbe0e236a	-0.13880697
127	0xbd441136	-0.047867976
128	0xbdd94194	-0.10608211
129	0xbda1fe6e	-0.07909857
130	0xbd6963e0	-0.056980014
131	0x3ca7d801	0.02048874
132	0xbd2d4682	-0.04230357
133	0xbca88c52	-0.020574722
134	0xbda56bef	-0.08077227
135	0x3ce569d6	0.028004568
136	0x3d5bea07	0.053689983
137	0x3d5a0dc1	0.053235773
138	0xbcdc20c6	-0.026871096
139	0xbd8d790c	-0.069078535
140	0xbd8d96ef	-0.06913554
141	0xbd9e8269	-0.077397175
142	0xbc98c0d1	-0.01864663
143	0xbd74be69	-0.0597519
144	0xbd838c48	-0.06423241
145	0xbd936dbf	-0.07198667
146	0x3cdc1228	0.026864126
147	0x3c3cea4e	0.011530472
148	0xbd8b6047	-0.06805473
149	0xbd39c83f	-0.045356985
150	0xbbcc23e2	-0.0062298635
151	0xbceaa628	-0.028643683
152	0xbd98edf9	-0.07467265
153	0xbcfa1129	-0.03052576
154	0x3c0f9093	0.0087624965
155	0xbc1d2496	-0.009591242
156	0x3c082bbf	0.008311211
157	0x3c8ef321	0.017449917
158	0x3d85c901	0.06532479
159	0x3d3b0f1e	0.045668714
160	0x3d35c44c	0.044376656
161	0xbd9d08f4	-0.07667723
162	0x3c3e2962	0.011606546
163	0xbd25ae33	-0.040449332
164	0xba83d9b9	-0.0010059393
165	0x3d0fd29e	0.03511297
166	0xbdafacd9	-0.0857789
167	0xbc55ba55	-0.013044913
168	0x3cc155b2	0.023600433
169	0x3a3afe78	0.0007133256
170	0x3c9d61c4	0.019211657
171	0x3d8a44b6	0.06751387
172	0xbd75d28f	-0.060015257
173	0x3cc97404	0.024591453
174	0xbdaee178	-0.085390985
175	0xbce9461b	-0.028475812
176	0x3c92c1db	0.017914703
177	0xbc77e604	-0.015130524
178	0x3c365632	0.011128949
179	0xbbdb3d30	-0.0066906437
180	0xbca47a07	-0.020077718
181	0x3c6b957d	0.0143789025
182	0x3d1fc924	0.039010182
183	0xbd806b24	-0.062704355
184	0x3bd7d61e	0.006586804
185	0x3d39ab63	0.045329463
186	0xbce7291c	-0.028217845
187	0xbdb216fc	-0.0869579
188	0xbc031093	-0.007999557
189	0x3c9a041b	0.018800786
190	0x3d359e5b	0.044340473
191	0xbd86a386	-0.06574158
192	0xbd87e26c	-0.066349834
193	0xbdb56010	-0.08856213
194	0x3d84aa05	0.06477741
195	0x3c58e671	0.013238535
196	0x3daaedc1	0.08346129
197	0xbde21d3a	-0.11040731
198	0x3ce5241e	0.027971324
199	0x3d87cb65	0.06630591
200	0x3d95ed54	0.07320657
201	0xbcdd9ad8	-0.027051374
202	0x3b15d14b	0.0022860344
203	0xbd3b7298	-0.045763582
204	0x3cf1685c	0.029468708
205	0x3d406a8f	0.046976622
206	0x3c5c27a8	0.013437189
207	0x3d0ebbbe	0.034847014
208	0x3d54059d	0.051763166
209	0xbd0ca241	-0.034334425
210	0x3cee562a	0.02909382
211	0xbd933fd3	-0.07189908
212	0x3d86e5e8	0.0658682
213	0xbd13f80b	-0.036125224
214	0xbc5f1fdd	-0.013618437
215	0x3cb2aa12	0.021809611
216	0x3c8dc2e4	0.017304845
217	0xbd5199cc	-0.051172063
218	0xbdaf3569	-0.08555109
219	0xbdadbff6	-0.08483879
220	0x3d4a4e03	0.049390804
221	0xbd9f0979	-0.07765479
222	0x3d4abee5	0.049498457
223	0x3d9a4198	0.07532042
224	0x3db26c15	0.08712021
225	0xbd12ccc5	-0.035839815
226	0xbdbc6776	-0.09199421
227	0x3d8cdacb	0.06877669
228	0x3d6a9004	0.05726625
229	0x3d82ca81	0.06386281
230	0x3c07b22f	0.008282228
231	0x3d024437	0.031803336
232	0xbda415c3	-0.08011963
233	0xbc9cc071	-0.019134732
234	0x3d6b01ed	0.057374883
235	0x3cf545ef	0.029940573
236	0x3d06fef7	0.032957997
237	0xbdcdea31	-0.10054434
238	0xbd944bfa	-0.07241054
239	0x3d90a797	0.07063215
240	0x3d4994b6	0.049214087
241	0xbcbffe01	-0.023436548
242	0xbc0e9704	-0.008702997
243	0xbd1a2c48	-0.037639886
244	0xbca3840f	-0.019960431
245	0xbddc1929	-0.107469864
246	0x3d9891f6	0.07449715
247	0x3c106602	0.008813383
248	0xbd278f86	-0.04090836
249	0xbda71865	-0.0815895
250	0x3daf929d	0.08572886
251	0x3d11d962	0.035607703
252	0xbcf17c88	-0.029478326
253	0x3cb11f22	0.02162129
254	0xbd9634e2	-0.07334305
255	0x3d080779	0.03321025

fc3.bias f4 [128]
0	0xbd47d967	-0.048791315
1	0xbd4f2945	-0.050576467
2	0xbd7562e7	-0.059908774
3	0x3b2c7646	0.0026315614
4	0xbbe6289a	-0.007023883
5	0x3e59f396	0.21284327
6	0xbdc04b9a	-0.0938942
7	0xbd4294ad	-0.04750507
8	0x3e14aa95	0.14518197
9	0x3e1202f9	0.14258946
10	0xbce4a863	-0.027912324
11	0xbda7255f	-0.08161425
12	0xbce23c77	-0.027616723
13	0xbd926356	-0.07147853
14	0xbd935866	-0.07194595
15	0x3df9e0f5	0.1220111
16	0xbd0f1a0c	-0.03493695
17	0xbd8411ee	-0.06448732
18	0xbcc20ae6	-0.023686837
19	0xbd3d5d84	-0.04623176
20	0xbd0df3ed	-0.034656454
21	0xbd4d73cf	-0.05015927
22	0xbd2c3cbe	-0.042050116
23	0xbd155bec	-0.036464617
24	0xbd246f51	-0.040145222
25	0x3d71320a	0.05888561
26	0xbdbeac5a	-0.09310217
27	0xbd53de19	-0.05172548
28	0xbd98cdb5	-0.074611105
29	0xbe6239e6	-0.22092399
30	0x3c4a6201	0.0123524675
31	0x3dbb1b77	0.09136098
32	0xbd96df60	-0.07366824
33	0xbdbf187e	-0.093308434
34	0x3d60a1fd	0.054841984
35	0xbb2a822f	-0.0026017537
36	0xbdc30cf2	-0.095239535
37	0x3b4c5666	0.0031179427
38	0xbda62b9e	-0.08113788
39	0x3e235939	0.15952004
40	0xbcad09c2	-0.021122817
41	0x3dc5c2b0	0.09656274
42	0x3d731b7c	0.059352383
43	0x3dc15d9d	0.094416834
44	0x3dc78f59	0.09744138
45	0xbcc4c6fd	-0.024020666
46	0x3e001663	0.1250854
47	0xbd996bf0	-0.074912906
48	0xbdefe701	-0.117139824
49	0xbdb00a1c	-0.08595678
50	0xbbd880b0	-0.0066071376
51	0xbd4ba8ae	-0.049721412
52	0x3c0375c4	0.008023683
53	0xbd932b2e	-0.0718597
54	0x3e0384be	0.12843606
55	0x3ce7fc29	0.028318482
56	0xbdafeed2	-0.08590473
57	0x3e480b34	0.19535524
58	0xbd83f6ca	-0.06443556
59	0x3daedea0	0.08538556
60	0xbd078834	-0.033088878
61	0xbd590658	-0.052984565
62	0xbcd97621	-0.026545586
63	0xbda7fce8	-0.08202535
64	0xbdf573a9	-0.11984951
65	0xbc619b0f	-0.013769879
66	0xbd064ddc	-0.032789096
67	0x3be3ed02	0.006955744
68	0xbcf8087e	-0.030277487
69	0x3b2a6b84	0.0026004026
70	0xbd8f98f9	-0.07011599
71	0xbcc63175	-0.024193505
72	0x3d9100e6	0.070802495
73	0xbd584ce8	-0.05280772
74	0xbc93390f	-0.017971544
75	0xbddb5c68	-0.107109845
76	0x3a075c2e	0.0005163577
77	0x3c599e72	0.013282405
78	0x3e445480	0.19172859
79	0xbd7cd0c4	-0.061722532
80	0x3ae464da	0.0017425076
81	0xbd4dea09	-0.05027202
82	0x3c405676	0.011739364
83	0x3d3b95a1	0.045796994
84	0x3d5bb2d2	0.053637333
85	0xbcc7ad1b	-0.024374535
86	0xbd22c91e	-0.03974258
87	0xbc600424	-0.013672862
88	0x3c667eb2	0.014068292
89	0xbc03c51f	-0.008042603
90	0x3da3a77c	0.079909295
91	0xbd015b34	-0.03158112
92	0x3c70fa88	0.014708169
93	0xbd3e79e4	-0.046502963
94	0xbd23ceb7	-0.03999206
95	0xbd4ff945	-0.05077483
96	0xbd5c08b6	-0.053719245
97	0xbc36454a	-0.011124918
98	0xbdab79e5	-0.08372859
99	0xbd56f8b3	-0.05248327
100	0x3d7b34ba	0.06132958
101	0x3db17b97	0.08666151
102	0x3c104335	0.008805086
103	0x3d396362	0.045260794
104	0xbdbbfa27	-0.09178572
105	0x3d5798aa	0.052635826
106	0xbda573a3	-0.080786966
107	0xbe0c0f15	-0.13677628
108	0x3c15cba2	0.009142788
109	0x3b371faf	0.002794247
110	0x3d1dc88e	0.038521342
111	0xbd678cb4	-0.05653067
112	0x3ca55394	0.020181455
113	0x3df03ab7	0.11729949
114	0xbd0efa90	-0.034906924
115	0xbda91192	-0.082553044
116	0xbe800bf0	-0.25009108
117	0xbd2bafb8	-0.041915625
118	0xbd088f4c	-0.033339784
119	0xbd216d4d	-0.039410878
120	0xbd1f72b5	-0.038927753
121	0xbd3d16e6	-0.046164416
122	0xbd817243	-0.06320622
123	0x3c7a7b22	0.015288146
124	0xbd7300ba	-0.059326865
125	0xbd428b4c	-0.047496125
126	0xbd0812e5	-0.033221144
127	0xbdbed1bd	-0.09317348

fc4.weight f4 [1, 128]
0	0xbe17e49c	-0.14833301
1	0x3c646dda	0.013942206
2	0x3b45e2e6	0.0030195056
3	0xbed9aaf1	-0.4251323
4	0xbede4b3e	-0.4341678
5	0xbe898c1b	-0.26864704
6	0x3d1bd078	0.03804061
7	0xbbef3926	-0.007300514
8	0x3da9a7dd	0.082839705
9	0x3dc02e02	0.09383775
10	0x3ca0ebbc	0.019643657
11	0x3d2143cf	0.039371308
12	0xbd8f785a	-0.07005377
13	0x3b4758fd	0.0030418031
14	0xbe4138e5	-0.1886936
15	0x3cbe20a4	0.023208924
16	0xbb7d93a4	-0.0038692737
17	0xbb779ca2	-0.003778257
18	0xbc92d09f	-0.017921744
19	0xbd294b2a	-0.041331448
20	0xbed9a399	-0.42507628
21	0xbe3f35d8	-0.18672884
22	0xbd40dafd	-0.047083843
23	0xbd9fc738	-0.0780167
24	0x3cddbb04	0.027066715
25	0xbe1aa142	-0.15100577
26	0xbd7e3ed3	-0.062071633
27	0xbbbdb29c	-0.005789114
28	0xbc260c9f	-0.010134845
29	0xbe1ccf4b	-0.15313451
30	0xbe944d21	-0.28965095
31	0x3d025f9f	0.031829473
32	0x3d80ff56	0.062987015
33	0xbbbd8e3b	-0.0057847775
34	0x3dbb740c	0.091529936
35	0xbf022269	-0.50833756
36	0x3d2b8a4c	0.041879937
37	0xbeadf530	-0.33976126
38	0x3ba62c8e	0.0050712293
39	0x3dad9422	0.0847552
40	0xbba79c49	-0.005115066
41	0x3dac01f8	0.08398813
42	0xbe4244b8	-0.18971527
43	0xbea1a7b3	-0.31573257
44	0xbe26bfc6	-0.16284093
45	0xbb95e721	-0.004574672
46	0x3dafb9cf	0.08580362
47	0x3d8e2218	0.069400966
48	0xbe5c56ba	-0.21517459
49	0xbcf97548	-0.030451432
50	0xbb935125	-0.004495757
51	0xbee907d3	-0.45513782
52	0xbe39ee85	-0.18157394
53	0xbe573de2	-0.210197
54	0x3d50d179	0.05098102
55	0x3dc5ae13	0.09652343
56	0x3d9b8e91	0.07595552
57	0xbe9a7b5c	-0.3017224
58	0xbd7c0677	-0.061529603
59	0x3d015112	0.031571455
60	0x3e84c4b4	0.25931323
61	0xbd68fd25	-0.056882042
62	0x3ba03e95	0.004890273
63	0x3cac27b6	0.02101503
64	0x3cc12a2e	0.023579683
65	0xbd8c7ced	-0.06859765
66	0x3d8869ad	0.06660781
67	0x3b5867ff	0.003302097
68	0x3e2217eb	0.15829436
69	0x3d67dc46	0.056606553
70	0xbd4ad589	-0.04952005
71	0xbbbbe8a1	-0.0057345186
72	0xbd151dc7	-0.03640535
73	0x3cf8837e	0.030336138
74	0x3a5d1e44	0.0008434991
75	0xbd038bbd	-0.032115687
76	0xbf19ded0	-0.6010561
77	0xbeaa080d	-0.33209267
78	0xbe8dd7ff	-0.27703854
79	0xbd33bbc2	-0.04388023
80	0x3a3643bc	0.0006952842
81	0xbd37f001	-0.04490662
82	0xbd270527	-0.040776398
83	0x3def7c07	0.11693578
84	0xbe82946e	-0.25503868
85	0x3dec336d	0.11533246
86	0xbd51805c	-0.051147804
87	0xbd368eb4	-0.044569686
88	0xba87274e	-0.0010311396
89	0xbbc76995	-0.0060855844
90	0xbe8bcba5	-0.27303806
91	0xbf0e546b	-0.5559756
92	0xbabb77a4	-0.0014302623
93	0xbdf6248b	-0.12018689
94	0x3c1bd0d3	0.009510237
95	0xbcaed050	-0.021339566
96	0xbd8b9e5d	-0.06817315
97	0x3ddd0e67	0.10793763
98	0xbe4601f3	-0.19336681
99	0xbd38b87f	-0.045097824
100	0x3c877a58	0.01653783
101	0x3d805e69	0.06268007
102	0x3bde580a	0.0067853974
103	0x3d884f82	0.0665579
104	0xbc92e231	-0.017930122
105	0x3e3b2ce3	0.18278842
106	0xbec1a163	-0.3781844
107	0xbe6edc80	-0.23326302
108	0x3cba0d88	0.02271153
109	0x3b95ebce	0.0045752292
110	0x3e070b4e	0.13187906
111	0xbcf00299	-0.029298114
112	0x3ba1b9a1	0.004935459
113	0x3ca7e00b	0.020492574
114	0x3b04c349	0.0020258
115	0x3bbd5104	0.00577748
116	0xbe2910df	-0.16510342
117	0x3c908435	0.017641166
118	0xbcb96b57	-0.022634191
119	0x3c646951	0.013941125
120	0xbe146a35	-0.1449364
121	0xbd9029d7	-0.0703923
122	0xbadb03dd	-0.0016709525
123	0xbe556225	-0.2083822
124	0xbd037665	-0.03209533
125	0x3d8ebf7e	0.06970118
126	0x3e0bca72	0.13651446
127	0xbe8241a3	-0.25440702
